results/MyTestWithNumEnvs1-NewRays/My Behavior.onnx (onnx, 162039 bytes, 7 tensors)

action_model._continuous_distribution.mu.weight f4 [1, 128]
0	0xbd135407	-0.035968807
1	0xbd171faa	-0.03689543
2	0x3d0a9f5d	0.033843387
3	0xbd8d0409	-0.06885535
4	0x3c1acf85	0.009448891
5	0xbd99bc13	-0.075065754
6	0x3ba99238	0.0051749013
7	0xbdc9bf35	-0.09850923
8	0x3bbab2ee	0.0056975996
9	0xbdb3e826	-0.08784513
10	0xbd5eb071	-0.054367486
11	0xba950b9d	-0.0011371259
12	0x3d68c245	0.056825895
13	0xbb6fc17e	-0.0036583836
14	0xbd9c2a11	-0.07625211
15	0x3d3f0ea2	0.046644814
16	0x3d3063dd	0.043063987
17	0x3c89d2de	0.016824182
18	0x3d8527a0	0.065016985
19	0x3ca49225	0.020089218
20	0x3b9e37d1	0.004828431
21	0xbcb22e4f	-0.021750597
22	0xbd7802e5	-0.060549635
23	0xbd066f95	-0.032821257
24	0x3a63430d	0.0008669354
25	0x3cae4d82	0.021277193
26	0xbdb396a9	-0.087689705
27	0xbd8b986e	-0.06816183
28	0x3de167e7	0.11006146
29	0x3c8164cb	0.015795132
30	0xbd788fdb	-0.060684066
31	0xbd4e05b5	-0.05029841
32	0xbbcf6a86	-0.0063298373
33	0x3d1ad5ff	0.03780174
34	0xbd8d90a4	-0.06912354
35	0x3d257c6f	0.040401872
36	0x3d9375f1	0.0720023
37	0xbd942f04	-0.0723553
38	0x3b82595b	0.003977937
39	0x3dcf654e	0.10126744
40	0xbddd139f	-0.10794758
41	0xbd660182	-0.05615378
42	0x3d4a1b8a	0.04934267
43	0xbd9f4f95	-0.07778851
44	0xbd605724	-0.054770604
45	0x3d217776	0.039420567
46	0x3d29d59f	0.04146349
47	0xbc4a21a1	-0.012337119
48	0xbcc8941a	-0.024484683
49	0x3d40ef09	0.04710296
50	0xbd97aa3e	-0.07405518
51	0xbd7a6b53	-0.06113751
52	0xbd2284c4	-0.039677396
53	0x3d550ff6	0.052017175
54	0xbda81956	-0.082079574
55	0xbd5118a6	-0.051048897
56	0x3d9d4b40	0.076803684
57	0x3d2a8cb8	0.041638106
58	0x3d43c92f	0.047799286
59	0xbd987bed	-0.07445512
60	0xbdb5e4d5	-0.08881537
61	0x3d14fc58	0.036373466
62	0xba2f0e79	-0.0006677877
63	0xbcfd87bc	-0.030948512
64	0xbd5a47ba	-0.05329106
65	0x3cd7d3de	0.026346143
66	0x3c397a02	0.011320593
67	0x3bb5a6f3	0.0055435835
68	0xbdaa8e6d	-0.08327947
69	0xbdb1eaac	-0.08687338
70	0x3d40464e	0.046942048
71	0xb8036c04	-3.133343e-05
72	0xbdbcfa0b	-0.092273794
73	0x3da749cc	0.081683725
74	0x3dc1726e	0.09445654
75	0x3cb66975	0.022267083
76	0xbcd8c901	-0.026463034
77	0x3d76b28d	0.060228873
78	0xbd96369d	-0.073346354
79	0xbd9d6b4b	-0.0768648
80	0x3affa37a	0.0019503676
81	0x3d488e5d	0.048963893
82	0x3d829230	0.06375539
83	0x3d97af87	0.07406526
84	0x3c919da7	0.01777537
85	0x3d1b2c6e	0.03788417
86	0x3cc01252	0.023446236
87	0xbbb58f4b	-0.0055407635
88	0x3d8b7c8a	0.06810863
89	0xbd07af11	-0.03312594
90	0x3d8a8b11	0.06764806
91	0x3a486efe	0.00076459337
92	0x3d4716f2	0.048605867
93	0xbd50416a	-0.050843634
94	0x3d9b0b17	0.075704746
95	0xbd9b3775	-0.07578937
96	0xbd6b6881	-0.05747271
97	0xbd98d8bf	-0.07463216
98	0xbcfdc01a	-0.03097539
99	0x3db2c27e	0.08728503
100	0x3d2c184b	0.042015355
101	0x3d8072a7	0.06271868
102	0x3c38da6a	0.011282543
103	0x3d452115	0.048127253
104	0xbd049cec	-0.032376215
105	0xbd829f0f	-0.06377994
106	0x3d232044	0.039825693
107	0xbb4db8a4	-0.0031390572
108	0x3da49299	0.08035774
109	0xbcba493d	-0.02274
110	0x3d77b18e	0.060472064
111	0x3c24e924	0.010065351
112	0x3c6e426e	0.014542205
113	0x3d2ff062	0.042953856
114	0x3ca65ea0	0.020308793
115	0xbd99a2b4	-0.07501736
116	0x3d25f1bb	0.040513735
117	0xbd81b5e3	-0.0633352
118	0x3dc99e5c	0.09844658
119	0xbd43e43d	-0.047825087
120	0xbd637913	-0.055535387
121	0x3dd0490b	0.10170182
122	0x3d0cf579	0.03441379
123	0xbd80197e	-0.06254862
124	0xbd87762b	-0.066143356
125	0x3cbd6d8a	0.023123521
126	0xbd6e39ea	-0.0581607
127	0xb99f7de7	-0.00030420648

action_model._discrete_distribution.branches.0.bias f4 [2]
0	0x3b6686d9	0.003517559
1	0xbb6686db	-0.0035175595

action_model._discrete_distribution.branches.0.weight f4 [2, 128]
0	0x3ac312a9	0.001488288
1	0x39bf4471	0.00036481352
2	0xbc98cf89	-0.018653648
3	0x3c8c6e8d	0.017142558
4	0x3a111fed	0.00055360683
5	0x3c7ad394	0.015309233
6	0x3b8d45b4	0.004311288
7	0x3cb8bf52	0.022552166
8	0xbbf7fabf	-0.007567733
9	0x3cee0ee9	0.029059844
10	0x3c30acc2	0.010783376
11	0x3cb695be	0.0222882
12	0x3bb0497d	0.0053798542
13	0xba9ec95e	-0.0012114455
14	0x3ceba223	0.028763836
15	0xbd56c31a	-0.052432157
16	0xbc8c30ed	-0.017113173
17	0xbcaaadb8	-0.020834789
18	0x3c39c1d2	0.011337714
19	0x3d3cf6c5	0.046133775
20	0x3c56df2b	0.013114731
21	0xbc71497b	-0.014726992
22	0x3c59cb51	0.013293103
23	0x3c83d2db	0.016091755
24	0x3b9d56dd	0.0048016147
25	0xbd0451d7	-0.03230461
26	0x3d1f88d7	0.03894886
27	0xb91fa957	-0.00015226506
28	0x3c2b130a	0.010441551
29	0x3a6bfe46	0.0009002428
30	0x3b78728e	0.0037910077
31	0x3d1bf037	0.038070884
32	0x3c59c3a5	0.013291274
33	0xbc44a875	-0.012003054
34	0x3c9c9c93	0.01911763
35	0xbc527e75	-0.0128475325
36	0xbc2969bc	-0.01034015
37	0x3c40ce07	0.011767871
38	0xba3c41ac	-0.0007181417
39	0xbcff0d4d	-0.031134272
40	0x3cb70499	0.02234106
41	0x3c67a08f	0.014137401
42	0x3a2e72a8	0.00066546584
43	0xbc1e556c	-0.009663921
44	0x3b89ea3d	0.0042088316
45	0xbc20759a	-0.009793663
46	0xbc391d7f	-0.011298536
47	0x3c8331b0	0.016014904
48	0xbc2b798f	-0.010465994
49	0xbcc59aa3	-0.024121588
50	0x3d08ad1b	0.03336821
51	0x3c88d6b6	0.016703945
52	0x3cbc09de	0.022953924
53	0x3c9e81af	0.019348947
54	0x3c2c8e8c	0.010532033
55	0x3ca4be93	0.020110404
56	0xbc191bfe	-0.009345053
57	0xbca33d42	-0.019926671
58	0xbce927db	-0.028461387
59	0x3c9b509b	0.018959334
60	0xbd1273d5	-0.035754997
61	0xbc864ee9	-0.01639505
62	0xbbec8419	-0.0072178957
63	0xbb135694	-0.0022482025
64	0x3d091e0a	0.033475913
65	0xbc9e22a1	-0.019303622
66	0xbd085f1d	-0.033293832
67	0x3c260202	0.010132315
68	0x3c9123cc	0.017717265
69	0x3c4a4be7	0.012347198
70	0xbd103f0f	-0.035216387
71	0x3cc554be	0.02408826
72	0x3c339e6c	0.010963064
73	0xbc307800	-0.010770798
74	0xbbd2c7b6	-0.006432499
75	0x3c397b9e	0.011320977
76	0x3cae8952	0.021305714
77	0x3a3f3476	0.0007293889
78	0x3cbea11e	0.023270186
79	0x3cc144d6	0.023592394
80	0x3bee1180	0.0072652698
81	0x394a26c9	0.0001927867
82	0xbb9cf6ff	-0.0047901864
83	0xbc9e84ee	-0.019350495
84	0x37245464	9.7948105e-06
85	0xbce44bb3	-0.027868127
86	0x3c89eefc	0.01683759
87	0x3d26e223	0.040743005
88	0xbcaac976	-0.020848017
89	0x3ccec8a4	0.025242157
90	0xbc571c7f	-0.013129353
91	0x3cb9a2a1	0.022660555
92	0x3c853c16	0.016264003
93	0x3c720cb7	0.014773539
94	0xbb866a1a	-0.0041020038
95	0x3d1dcadf	0.03852355
96	0x3c993baf	0.018705217
97	0x3d122df6	0.035688363
98	0xbb603596	-0.0034211627
99	0xbc9f4984	-0.019444235
100	0xbca0e1ed	-0.01963898
101	0xbd23fb80	-0.04003477
102	0xbcd2724c	-0.025689267
103	0xbcd0d62e	-0.025492754
104	0x3cc0da0d	0.023541475
105	0x3ccbe41e	0.024889048
106	0xbcbca8ec	-0.023029767
107	0xbcea2ebf	-0.028586743
108	0xbc023f65	-0.007949685
109	0x3bc30c6a	0.0059524076
110	0xbbd669e8	-0.0065433867
111	0xbc7a19fb	-0.015264983
112	0xbc044317	-0.008072636
113	0xbcebb1ef	-0.028771369
114	0xbbcd9188	-0.006273452
115	0xbc1bfe6b	-0.009521107
116	0xbc25f1d6	-0.010128459
117	0x3cd573d2	0.026056204
118	0xbcf4af3c	-0.029868715
119	0x3ca2543b	0.019815555
120	0x3cdb2e87	0.026755584
121	0xbccedfff	-0.025253294
122	0xbc3ed1be	-0.011646686
123	0x3c71a6c0	0.014749229
124	0x3d2e120f	0.04249769
125	0xbd2c56a7	-0.042074826
126	0x3cec8c1d	0.028875405
127	0xbca90cb2	-0.020635936
128	0x3bf787d7	0.007554035
129	0xbce51ab1	-0.027966829
130	0x3c80d4b5	0.015726427
131	0xbcdf8798	-0.027286336
132	0x3c084a12	0.008318441
133	0xbc57fdf4	-0.013183106
134	0x3c74571d	0.014913348
135	0xbc5e873a	-0.013582045
136	0x3ba776bc	0.00511059
137	0x3a98a692	0.0011646322
138	0xbc98f34c	-0.0186707
139	0xbd093d79	-0.03350589
140	0xbc28eb1c	-0.010309961
141	0xbbc9c443	-0.0061574294
142	0xbcfaac7c	-0.030599825
143	0x3d08f1b8	0.033433646
144	0x3bc03c8f	0.005866594
145	0x3bc09e43	0.0058782413
146	0x3c143822	0.009046586
147	0xbd6703be	-0.056400053
148	0xbcc59788	-0.024120107
149	0x3bcf896d	0.006333521
150	0xbcc28a81	-0.023747684
151	0xbcaf18da	-0.021374155
152	0xbb319d67	-0.0027101876
153	0x3d201c41	0.039089445
154	0xbc23056f	-0.009950026
155	0xbc368e8f	-0.011142387
156	0x3ba70278	0.00509673
157	0xba7f9735	-0.00097500096
158	0xbc5230b0	-0.012828991
159	0xbc72ee6a	-0.01482735
160	0xbc414777	-0.011796824
161	0x3c3cc966	0.0115226265
162	0xbce4cfc0	-0.027931094
163	0x3b1dedbe	0.0024098004
164	0xbb65efba	-0.0035085515
165	0xbc143926	-0.009046828
166	0xbc9e1670	-0.019297808
167	0x3d28a80a	0.04117588
168	0xbcff9738	-0.031200036
169	0xbc80a9ec	-0.015706025
170	0x3a7132d2	0.0009200993
171	0x3c9a8157	0.018860502
172	0xbb7df4d0	-0.0038750656
173	0x3b96d515	0.004603038
174	0x3c158f40	0.009128392
175	0xbcc64d3a	-0.024206746
176	0x3b4fc9da	0.0031706006
177	0x3d3dc19d	0.046327222
178	0xbcc7099f	-0.02429658
179	0xbc50304b	-0.012706826
180	0xbd19751d	-0.037465204
181	0x3bb3486e	0.005471281
182	0xbc303da0	-0.01075688
183	0xbcdb0206	-0.026734363
184	0x3c0369c9	0.008020827
185	0x3d052074	0.032501653
186	0x3d37a915	0.044838984
187	0xbca09c2e	-0.019605722
188	0x3c0a4e59	0.008441531
189	0xbbb7a834	-0.005604768
190	0x3c927561	0.017878236
191	0xbcbeb284	-0.023278482
192	0xbce19b3c	-0.027539842
193	0x3cc7fd66	0.024412822
194	0x3d0e6958	0.034768432
195	0x3b8cdf04	0.0042990465
196	0xbc366c25	-0.011134182
197	0xbcef88de	-0.029240068
198	0x3cf4c3e5	0.029878566
199	0xbccbb057	-0.024864359
200	0xbcce9ebb	-0.025222173
201	0x3cb81491	0.022470744
202	0x3b85dba0	0.004085019
203	0xbc635be9	-0.013876894
204	0xbc4344e9	-0.011918285
205	0x3c0666a2	0.0082031805
206	0xbcf1ccd3	-0.029516613
207	0xbccf8bc6	-0.025335204
208	0xbb027afe	-0.0019909735
209	0xbc57ad8d	-0.013163936
210	0xbaa83e5e	-0.001283597
211	0x3caab729	0.02083929
212	0xbbf578a3	-0.0074911877
213	0x3c919a94	0.017773904
214	0xbc9b5407	-0.018960966
215	0xbd039f34	-0.03213425
216	0x3cb9eb24	0.022695132
217	0xbc6418e2	-0.013921948
218	0xba82c285	-0.0009976184
219	0xbcd5c8e3	-0.026096767
220	0xbae15434	-0.0017191232
221	0xbd02fe0e	-0.031980567
222	0x3bded0e5	0.0067998045
223	0xbc8f1ed8	-0.017470762
224	0xbcd66bf4	-0.026174523
225	0xbb1aa316	-0.0023595742
226	0x3c53d44a	0.012929032
227	0x3d0d64a5	0.03451981
228	0x3c76c5eb	0.015061836
229	0x3d1481e5	0.03625669
230	0x3cf72d66	0.030173015
231	0x3bf7fffa	0.0075683566
232	0xbcdcd84b	-0.026958605
233	0xbcdec480	-0.027193308
234	0x3c9568c9	0.018238442
235	0x3c21b2ef	0.009869321
236	0x3c35306d	0.011058909
237	0xbc952c04	-0.018209465
238	0xbbb4f441	-0.0055222814
239	0xba892f67	-0.0010466398
240	0x3cad7666	0.02117462
241	0x3c38edf1	0.011287198
242	0x3c7e82c4	0.015534107
243	0xba626bcc	-0.0008637279
244	0xbb6030e9	-0.003420884
245	0xbcdf1ede	-0.027236398
246	0x3d3246af	0.04352444
247	0xbc61d5b1	-0.013783858
248	0xbd02bf74	-0.031920865
249	0x3c80ab0b	0.01570656
250	0x3a1609b3	0.0005723491
251	0xbc288db9	-0.010287696
252	0xbcdc6054	-0.026901402
253	0x3ca38b41	0.019963862
254	0xbce9b808	-0.028530136
255	0x3c790b76	0.015200486

network_body._body_endoder.seq_layers.0.bias f4 [128]
0	0x3d1426d8	0.036169857
1	0x3c2a3e5e	0.010390846
2	0x3ca2d641	0.019877555
3	0x3caaeb5e	0.020864185
4	0x3c5fea78	0.013666742
5	0x3be1ddd6	0.0068929
6	0x3c760e08	0.015017994
7	0x3c7850ca	0.01515598
8	0x3c8ab65d	0.01693266
9	0xba497d61	-0.00076862244
10	0x3baccdb0	0.0052735433
11	0xbb9cb88c	-0.004782742
12	0x3c10f96c	0.008848529
13	0x3d7a0352	0.061038323
14	0x3c67a3f8	0.014138214
15	0x3c8d618e	0.017258432
16	0x3c80afde	0.01570886
17	0x3ca1d517	0.01975493
18	0x3a68264a	0.0008855803
19	0x3c0b8102	0.008514645
20	0x3cbc2e4e	0.022971299
21	0x3b4c17a0	0.0031142011
22	0x3b949507	0.004534367
23	0x3c8ff5b3	0.017573213
24	0x3b7cd022	0.0038576205
25	0x3cce5b58	0.02519004
26	0x3ca2dd7e	0.019881006
27	0x3c2341c6	0.009964412
28	0x3c0761d1	0.008263067
29	0x3cf4378a	0.02981164
30	0xbbbf90b6	-0.0058461083
31	0x3c3cd0a1	0.01152435
32	0x3c8635dd	0.016383106
33	0x3c007266	0.007839775
34	0x3b292112	0.0025807065
35	0x3caecab1	0.021336885
36	0x3adcd97d	0.0016849485
37	0x3c0f0576	0.008729329
38	0xba5c7402	-0.00084096205
39	0x3c14deff	0.00908637
40	0x3c96399d	0.018338019
41	0xb9e62cfe	-0.0004390254
42	0x3cee3860	0.029079616
43	0x3bc15a53	0.00590066
44	0x3ac42866	0.0014965653
45	0x3ce88232	0.028382394
46	0x3c2c14b3	0.010502982
47	0x3cace48b	0.021105072
48	0x3bb4b700	0.0055149794
49	0x3c96aeb8	0.01839386
50	0x3ad4ccf6	0.00162354
51	0x3bd22913	0.006413588
52	0x3c77281c	0.015085246
53	0x3cb4e011	0.0220795
54	0x3ca88b84	0.020574339
55	0x3b27c2b4	0.002559823
56	0x3cb785bd	0.022402639
57	0x3c413b90	0.011793986
58	0xbb5d6f9f	-0.0033788455
59	0x3bda868b	0.006668871
60	0x3c2e8607	0.010652072
61	0x3b8b4e9b	0.004251314
62	0x3cad2bcd	0.02113905
63	0x3b948dab	0.0045334897
64	0x3c2aba93	0.010420459
65	0x3badd417	0.005304824
66	0x3bc0c905	0.0058833384
67	0xbb007f5a	-0.0019607157
68	0x3c7aac78	0.015299909
69	0x3b849b3d	0.004046826
70	0x3cb5805e	0.022155937
71	0x3c5b0087	0.013366825
72	0x3a95f71e	0.0011441445
73	0x3c377652	0.011197643
74	0xbc35d6d6	-0.011098584
75	0x3b87d29f	0.004144981
76	0x3c987a6a	0.01861306
77	0xbc0c478b	-0.008561979
78	0xbb164358	-0.0022928324
79	0x3d2302d0	0.039797604
80	0x3d05ebc1	0.032695536
81	0x3c6ec65a	0.014573658
82	0x3c19299d	0.0093483
83	0x3c921aa7	0.017834974
84	0x3b913f64	0.0044326056
85	0x3c0c347c	0.008557435
86	0x3b7b7bad	0.0038373277
87	0x3cde3fa1	0.02712995
88	0x3c364e0e	0.011127008
89	0x3cd72fa9	0.026267843
90	0x3c23af1f	0.009990483
91	0xbbb958d2	-0.00565634
92	0x3c71ed40	0.014766037
93	0x3c9113d5	0.017709652
94	0xbbcf2a45	-0.0063221776
95	0x3c3d76b7	0.011563948
96	0x3b6c4bba	0.0036055879
97	0x3c21136e	0.009831293
98	0x3c79b5d1	0.015241102
99	0x3bf19202	0.007372142
100	0x3cddb0d4	0.027061857
101	0x3c26348b	0.010144363
102	0x3c31daf9	0.01085543
103	0x3b3ff54a	0.002929049
104	0x3ccc5c59	0.024946379
105	0x3b1c5fdd	0.002386085
106	0x3cb6785b	0.022274187
107	0x3c707047	0.0146752065
108	0x3be4ab12	0.006978401
109	0xbc0aa207	-0.008461482
110	0x3d042edb	0.032271247
111	0x3b7ad8ec	0.0038276268
112	0xbb9b620a	-0.004741912
113	0x3caffe24	0.021483488
114	0x3c7e634d	0.015526605
115	0x3bb9e323	0.0056728288
116	0x3bd4caa5	0.0064938837
117	0xbbff9f15	-0.0078009465
118	0x3cb5e49f	0.022203742
119	0x3c565ae1	0.013083191
120	0x3ccddf45	0.025130877
121	0x3c4cb1cd	0.012493563
122	0xbc182d19	-0.009288096
123	0x3d29a3e3	0.04141606
124	0x3c27c836	0.010240605
125	0x3c6c88a1	0.014436872
126	0xbaede4cb	-0.0018149851
127	0x3c4c24c9	0.012459942

network_body._body_endoder.seq_layers.0.weight f4 [128, 177]
0	0xbd6706e8	-0.05640307
1	0xbd7b9103	-0.06141759
2	0x3b8fa782	0.004383982
3	0x3de5b1db	0.11215564
4	0xbc51cef7	-0.012805692
5	0xbdbe6f18	-0.09298533
6	0x3b8ef3ba	0.0043625506
7	0x3da1203a	0.07867475
8	0x3e143378	0.14472759
9	0x3da9f1db	0.082980834
10	0xbd797724	-0.060904637
11	0xbd08a674	-0.033361867
12	0x3e17bdc1	0.14818479
13	0x3d398c97	0.045300093
14	0xbe0c727f	-0.13715552
15	0x3dde8ac8	0.10866314
16	0x3b36caa5	0.0027891782
17	0xbd9dbb14	-0.07701698
18	0x3d95c0a2	0.073121324
19	0xbd95a680	-0.07307148
20	0x3d39e65b	0.0453857
21	0x3d5601e7	0.052247908
22	0x3caa9ab2	0.020825718
23	0x3d7090b1	0.05873174
24	0xbdf5a2d1	-0.119939454
25	0x3cff7b48	0.031186715
26	0x3c82e7a1	0.01597959
27	0x3d0ad0bd	0.033890475
28	0x3d8e5a67	0.06950837
29	0xbcbc287a	-0.02296852
30	0xbc95af8a	-0.01827218
31	0x3cadcd63	0.0212161
32	0xbd86be7d	-0.065793015
33	0x3d8d20e8	0.06891042
34	0xbde0f773	-0.10984697
35	0x3da26887	0.07930093
36	0xbd5bf11b	-0.053696733
37	0x3d70e795	0.058814604
38	0xbd07b477	-0.03313109
39	0x3dc7c6d3	0.097547196
40	0xbd8b9897	-0.068162136
41	0x3d2dc5b5	0.042424876
42	0x3dc03fd0	0.09387171
43	0x3dcf766a	0.101300076
44	0x3db4cb33	0.0882782
45	0xbcef6833	-0.02922449
46	0x3db137e6	0.0865324
47	0xbd730c50	-0.059337914
48	0x3d804c93	0.062646054
49	0x3e29a87e	0.16568181
50	0xbd2dae48	-0.042402536
51	0x3d2fd17b	0.042924386
52	0x3e09522e	0.13410255
53	0x3d220614	0.039556578
54	0x3db15441	0.08658648
55	0x3a891226	0.0010457679
56	0xbd4f9540	-0.050679445
57	0xbe065916	-0.13119921
58	0x3c93e75a	0.018054653
59	0xbd402a98	-0.04691562
60	0x3cabaa9e	0.02095538
61	0x3d87e9d2	0.066363946
62	0xbc8cc82e	-0.017185297
63	0x3d027a6d	0.031855036
64	0x3c27ad5c	0.010234203
65	0xbdd27845	-0.10276846
66	0x3c59c73a	0.013292128
67	0x3df38362	0.11890294
68	0x3cb8aeeb	0.022544345
69	0x3c0425d1	0.008065657
70	0xbd8af01b	-0.06784078
71	0xbdb8db0a	-0.090261534
72	0xbc8d1735	-0.01722298
73	0x3da68015	0.081298985
74	0xbcda2e01	-0.026633264
75	0x3d9ce03e	0.07659958
76	0x38f51498	0.00011686346
77	0x3ac9e015	0.0015401865
78	0x3dbb6adf	0.091512434
79	0xbcd28e8f	-0.025702743
80	0x3d475720	0.048667073
81	0x3c0ea9dc	0.00870749
82	0xbd48cdff	-0.04902458
83	0x3de3cd18	0.11123103
84	0xbc73fae8	-0.014891364
85	0x3d9e7a0a	0.07738121
86	0xbb23045d	-0.0024874427
87	0x3df68a49	0.120380946
88	0xbc3fca69	-0.011705973
89	0xbd843883	-0.06456091
90	0x3e3f3c23	0.18675284
91	0xbc42fafb	-0.011900659
92	0xbc8390e4	-0.0160603
93	0xbdae6e8f	-0.08517181
94	0xbcab5840	-0.020916104
95	0xbd6e2ea0	-0.058149934
96	0x3c36b5e8	0.011151768
97	0x3dffcae2	0.12489869
98	0xbbe258aa	-0.0069075422
99	0x3e4f330e	0.2023432
100	0x3e7c8f59	0.24664058
101	0x3d01e74d	0.031714726
102	0xbb80ef6b	-0.003934791
103	0x3e1c704a	0.1527721
104	0x3a89dcd6	0.0010518085
105	0xbd25bcf7	-0.040463414
106	0xbcc934c2	-0.02456129
107	0x3e673b2f	0.2258117
108	0x3e4e4b5a	0.20145932
109	0xbdb80e52	-0.089871064
110	0xbdadd281	-0.08487416
111	0xbb21a896	-0.0024667135
112	0x3d04b6b9	0.03240082
113	0x3d90ffd6	0.07080047
114	0x3ddc8455	0.10767428
115	0x3d145c27	0.036220696
116	0x3e3d9278	0.18512905
117	0xbd050d06	-0.032483123
118	0x3d5d9ef5	0.05410667
119	0xbc28d786	-0.010305291
120	0xbca3f7e9	-0.020015674
121	0x3e14efe2	0.14544633
122	0x3daad2ad	0.083409645
123	0x3c859faf	0.016311495
124	0x3dd9c07d	0.10632417
125	0xb86b57c0	-5.611009e-05
126	0x3c90966f	0.017649857
127	0x3d9387ed	0.0720366
128	0x3d24442c	0.040104076
129	0x3deb38ce	0.11485444
130	0xbcf933f5	-0.030420283
131	0x3e066c04	0.13127142
132	0x3d744953	0.05964024
133	0xbddcba36	-0.107777044
134	0x3d91ce0c	0.071193784
135	0x3cd83c5a	0.026395965
136	0x3e167437	0.1469277
137	0x3d9fc391	0.07800973
138	0xbd654549	-0.05597428
139	0x3d44bb93	0.048030447
140	0xbd105860	-0.03524053
141	0x3b5d5e1a	0.0033778013
142	0xbdcd435a	-0.10022612
143	0xbd0a51b1	-0.033769313
144	0xbe0b4c12	-0.13603237
145	0xbd286028	-0.041107327
146	0x3da33544	0.07969144
147	0x3c0331ba	0.008007461
148	0xbaad59df	-0.0013225636
149	0x3d92653d	0.07148216
150	0x3d444320	0.047915578
151	0xbda819ad	-0.08208022
152	0x3c853819	0.016262101
153	0x3dca0f9a	0.09866257
154	0x3dfd749a	0.123757556
155	0x3bd6c7d2	0.006554582
156	0xbd936190	-0.07196343
157	0xbd9ccdbc	-0.07656428
158	0x3dc17ad2	0.09447254
159	0x3e87a60e	0.26493877
160	0xbe2fc5c4	-0.17165285
161	0x3b35f429	0.002776394
162	0xbce0c946	-0.027439725
163	0x3c18e018	0.009330772
164	0x3d3d9da6	0.046292923
165	0xbd35a686	-0.044348262
166	0xbd0c0d82	-0.03419257
167	0x3c08c3fb	0.008347507
168	0xbdfed6b1	-0.12443293
169	0x3ce48f3a	0.027900327
170	0x3bbebf9c	0.0058211815
171	0x3d5cdac7	0.05391958
172	0xbe2093db	-0.15681402
173	0x3de227c1	0.11042739
174	0x3dbb2792	0.09138407
175	0x3df7cdac	0.12099776
176	0x3dc458f0	0.09587276
177	0xbb3e355d	-0.0029023506
178	0xbd47766c	-0.04869692
179	0x3d295edc	0.04135023
180	0x3c7689a4	0.0150474645
181	0xbd1473bb	-0.03624318
182	0xbe2cf698	-0.16890943
183	0xbdba04ec	-0.0908297
184	0x3d6b7c47	0.057491567
185	0x3ddf299f	0.108966105
186	0x3dd8fbe0	0.10594916
187	0x3dbd9583	0.09257033
188	0xbe37633a	-0.17908946
189	0x3dea70c5	0.1144729
190	0xbd8608cc	-0.065446466
191	0xbcd6d206	-0.026223194
192	0x3b8f7046	0.0043773977
193	0x3dd1f3ca	0.10251577
194	0x3dcab877	0.09898465
195	0xbd71513e	-0.05891537
196	0xbbbcece4	-0.0057655443
197	0xbc841e19	-0.016127633
198	0xbd62c6ab	-0.055365246
199	0xbdc0b3c4	-0.094092876
200	0xbce87026	-0.028373789
201	0xbd4b1aea	-0.049586214
202	0x3cfe1499	0.031015681
203	0x3d5d6af4	0.054057077
204	0xbbc8c9cb	-0.006127571
205	0xbd00401d	-0.031311143
206	0xbd790e21	-0.06080449
207	0xbce298c0	-0.027660728
208	0xbd91b534	-0.0711464
209	0x3d34bcb7	0.044125285
210	0x3da5d85f	0.0809791
211	0xbd41b9f7	-0.04729649
212	0x3dd19c6b	0.102349125
213	0xbde80634	-0.11329308
214	0xbe017fc2	-0.12646392
215	0x3deb7e29	0.114986725
216	0x3d667998	0.056268305
217	0x3cb479cc	0.022030734
218	0x3d5dc13c	0.05413936
219	0x3d75a5ee	0.059972696
220	0x3cb57716	0.022151511
221	0xbdc5b0da	-0.096528724
222	0xbc239ec9	-0.009986588
223	0x3db5cf7b	0.088774644
224	0x3b7a1d8a	0.003816458
225	0xbd49e905	-0.04929449
226	0xbe1e934b	-0.15485875
227	0x3dacae77	0.08431714
228	0x3bb0d496	0.005396436
229	0xbc2cb72b	-0.0105417175
230	0xba011df8	-0.0004925425
231	0xbc2c722f	-0.01052527
232	0x3d694184	0.056947246
233	0xbdeb56d1	-0.11491168
234	0x3d4cb442	0.049976595
235	0xbd177758	-0.03697905
236	0xbca66c06	-0.020315181
237	0x3c2173c4	0.009854261
238	0x3e1467a7	0.14492665
239	0x3d9f57e0	0.07780433
240	0x3df97794	0.12181011
241	0xbe7ed6d2	-0.24886635
242	0xbd3f1598	-0.046651453
243	0xbd256ebb	-0.040388804
244	0xbc7d7bf2	-0.015471445
245	0xbdf8be2b	-0.12145647
246	0x3dad92d1	0.08475269
247	0xbd275bfa	-0.0408592
248	0xbc275a44	-0.010214392
249	0xbe314574	-0.1731165
250	0xbd29a4ed	-0.04141705
251	0x3ca19104	0.01972247
252	0x3d2daf22	0.042403348
253	0x3ce96ddd	0.02849477
254	0xbd184086	-0.03717091
255	0x3b5993cc	0.0033199666

network_body._body_endoder.seq_layers.2.bias f4 [128]
0	0x3b0e8d35	0.0021751646
1	0x3bf707f7	0.0075387913
2	0xbba1cf64	-0.004938053
3	0x3be6dc83	0.00704533
4	0xb9a20ee4	-0.00030910142
5	0x3c67f2e3	0.01415703
6	0xba8520e0	-0.0010156892
7	0x3cbf50c4	0.023353942
8	0x3be4c059	0.0069809374
9	0x3ca250eb	0.019813975
10	0x3aabd83a	0.0013110705
11	0x3cc3853d	0.023867244
12	0x3beebc86	0.0072856573
13	0xbc8c27fb	-0.017108908
14	0x3993f4cc	0.00028220413
15	0x39fb24f9	0.00047901997
16	0x3c095c98	0.0083838925
17	0xbadde60d	-0.0016929522
18	0x3bcd2ea1	0.006261662
19	0x3cae8727	0.02130468
20	0x3bb23b43	0.0054391935
21	0xbc729405	-0.014805798
22	0x3d0c28a2	0.034218438
23	0x3c0fa7f6	0.008768072
24	0xbc1392fd	-0.009007213
25	0x3b5fe9c5	0.0034166437
26	0x3c24c921	0.0100577185
27	0x3b7b94c0	0.0038388222
28	0x3c912148	0.017716065
29	0x3ba40560	0.0050055236
30	0xbb21cae8	-0.0024687592
31	0x3bee09c6	0.0072643487
32	0xb9ab1eda	-0.00032638648
33	0x3c1a3739	0.00941258
34	0x3c51a1dd	0.012794939
35	0x3bfc9bc4	0.0077089984
36	0x3c78cc0a	0.015185365
37	0xbae9ce0a	-0.0017837894
38	0x3c51ecdf	0.012812822
39	0x3cd7e681	0.02635503
40	0x3c9a8c4d	0.018865729
41	0xbaab65d0	-0.0013076607
42	0x3b44a857	0.0030007565
43	0x3b8c5324	0.004282372
44	0xba8e79b7	-0.0010870014
45	0x3c14969c	0.009069111
46	0x3b5d2bd4	0.0033748047
47	0x3b577b07	0.0032879726
48	0x3bcdc97f	0.0062801237
49	0x3bc0e5c8	0.005886767
50	0x3b8fcf6a	0.0043887394
51	0x3c81d3a5	0.01584799
52	0x3c481769	0.012212613
53	0x3c0c060c	0.008546364
54	0x3c8cf464	0.017206378
55	0x3c1cff33	0.009582329
56	0x3c4dcc5f	0.012560933
57	0x3c8ae611	0.016955407
58	0x3b8889db	0.0041668243
59	0x3ca1a2f2	0.019731019
60	0x3bc1c8f3	0.0059138476
61	0xba6e6004	-0.0009093287
62	0xbc51c1b6	-0.012802532
63	0xb9df9d83	-0.0004265123
64	0x3bd924fa	0.0066267224
65	0x3be9cd59	0.007135075
66	0x3b21caad	0.0024687455
67	0xbc6170e0	-0.013759822
68	0x3c39e3cb	0.011345814
69	0x3cb21078	0.021736369
70	0x3a3bc5df	0.0007162969
71	0x3c1bac00	0.009501457
72	0x3c0ea2ff	0.0087058535
73	0x3ca361eb	0.019944152
74	0x3c9380a0	0.01800567
75	0x3a87fd23	0.0010375123
76	0xbb3a1f81	-0.0028400125
77	0x3c0f5826	0.008749044
78	0x3d04ca5e	0.032419555
79	0x3c6c5fd4	0.014427144
80	0x3bb1dac0	0.0054276884
81	0x3c02d93f	0.007986366
82	0x3c3d1443	0.011540475
83	0x3baf6c1c	0.005353464
84	0xbc0be293	-0.008537906
85	0xbc012856	-0.007883152
86	0x3b8ca98c	0.0042926725
87	0x3c5302df	0.0128791025
88	0x3cd2b276	0.025719862
89	0x3b55ac9b	0.0032604102
90	0x3c20c8b9	0.009813481
91	0x3cf052cc	0.029336356
92	0x3c7f5e84	0.015586499
93	0x3b5abd45	0.0033376974
94	0x3bce8344	0.006302269
95	0x3c9b611f	0.01896721
96	0x3c970ce8	0.018438771
97	0x3c8e0e93	0.017340934
98	0xbbc7f24a	-0.006101881
99	0x3c8c4234	0.017121412
100	0x3c596785	0.01326931
101	0x3bf03417	0.0073304283
102	0xbc3039ce	-0.010755969
103	0x3c211e99	0.009833955
104	0x3b293e6c	0.002582456
105	0x3c86ef83	0.01647163
106	0xbb6e7603	-0.0036386258
107	0xbb1bdce4	-0.0023782784
108	0x3c70addb	0.014689888
109	0xbb346752	-0.0027527404
110	0x3c515f9c	0.012779143
111	0x3b4beb46	0.0031115576
112	0x3b9e3175	0.004827673
113	0x3bd41d97	0.006473254
114	0xba590e6a	-0.0008280041
115	0x3c4f6990	0.012659445
116	0x3bf03725	0.0073307925
117	0x3c1fa76d	0.009744507
118	0x3c88b51a	0.016687918
119	0x3c07bd45	0.0082848715
120	0x3c8ccb37	0.017186744
121	0x3c9c86c5	0.019107232
122	0x3b60e2d0	0.0034314878
123	0x3bcec50e	0.006310112
124	0x3cc93786	0.024562608
125	0xba719639	-0.00092158053
126	0x3c4daec4	0.012553874
127	0xbc1136a1	-0.008863122

network_body._body_endoder.seq_layers.2.weight f4 [128, 128]
0	0xbd011898	-0.031517595
1	0x3e0e80c0	0.13916302
2	0xbd75875d	-0.059943546
3	0x3da26050	0.079285264
4	0x3d387334	0.04503174
5	0xbb5a35af	-0.0033296158
6	0xbe233cb6	-0.15941128
7	0xbda2cbda	-0.07949038
8	0xbe0792e2	-0.13239625
9	0xbd810f43	-0.06301739
10	0xbdb8ea50	-0.090290666
11	0xbd0d6787	-0.03452256
12	0xbdb329d8	-0.087482154
13	0xbb7168c3	-0.0036836124
14	0xbd07936b	-0.033099573
15	0xbda647d6	-0.0811917
16	0xbe1f7459	-0.15571727
17	0x3de75660	0.112957716
18	0x3c07f10e	0.008297218
19	0xbdbc1c4e	-0.09185086
20	0x3daa3f58	0.08312863
21	0xbcf7e476	-0.030260306
22	0xbd853b2a	-0.06505425
23	0x3dff6ad1	0.124715455
24	0x3c80a645	0.015704283
25	0x3c76559f	0.015035062
26	0x3e196d0d	0.14983006
27	0xbd6e73f5	-0.058216054
28	0xbdae2b85	-0.085043944
29	0x3d375ffc	0.044769272
30	0x3c9da5e8	0.01924415
31	0x3e252e7d	0.16131015
32	0xbc51d97d	-0.012808201
33	0xbe27ff50	-0.16405988
34	0xbd86217e	-0.06549357
35	0x3e1e65b5	0.15468486
36	0xbe00f128	-0.12591994
37	0x3ce13423	0.027490681
38	0xbe361f74	-0.17785436
39	0x3d736b92	0.05942876
40	0xbbee3564	-0.0072695483
41	0x3d30ac46	0.043133043
42	0xbe3c4bc1	-0.18388273
43	0xbd3e3f8c	-0.04644732
44	0x3d700ef0	0.058607996
45	0x3c4f9962	0.012670847
46	0x3df39808	0.11894232
47	0xbdcbb678	-0.099469125
48	0xbe0892a3	-0.13337187
49	0xba846ff0	-0.0010104161
50	0x3c742fa2	0.014903935
51	0x3c8a8d58	0.016913101
52	0xbd62225e	-0.055208556
53	0x3bc54d7c	0.0060211997
54	0xbb6f0069	-0.003646875
55	0x3cfdd6ff	0.030986307
56	0xbdd5f58e	-0.104472265
57	0xbe2c9251	-0.1685269
58	0xbd0ea52d	-0.034825493
59	0xbda557fd	-0.08073423
60	0xbd9faf80	-0.07797146
61	0xbda13f60	-0.07873416
62	0x3d1384c4	0.036015287
63	0x3e20668e	0.15664122
64	0xbd804455	-0.06263033
65	0xbd9f2e4d	-0.07772503
66	0x3dcc1f65	0.099669255
67	0x3b25312d	0.0025206313
68	0x3c8d8288	0.017274156
69	0xbd10ce3b	-0.035352927
70	0x3ce8f38a	0.028436441
71	0x3c11b651	0.008893565
72	0x3c9249c2	0.017857436
73	0xbd48eae1	-0.049052123
74	0xbe41015b	-0.18848173
75	0x3db4a8e4	0.08821276
76	0xbd527abc	-0.05138658
77	0x3d83e8fb	0.06440922
78	0xbe18ea8b	-0.14933221
79	0xbc8c50bc	-0.01712834
80	0xbdb024cc	-0.086007684
81	0x3dce6d77	0.100794725
82	0xbd183bea	-0.037166514
83	0x3c8719a3	0.016491717
84	0x3d8d635c	0.06903717
85	0xbce0a67c	-0.027423136
86	0x3c660d9d	0.014041332
87	0x3c3a6670	0.011376962
88	0x3ca08c0c	0.01959803
89	0xbcf1c8d3	-0.029514706
90	0xbcfc8d84	-0.030829199
91	0x3dcd156a	0.1001385
92	0xbdb20fa7	-0.08694392
93	0xbd87aaec	-0.06624398
94	0x3e04d578	0.12972057
95	0x3e0536d8	0.13009202
96	0xbd74c524	-0.05975832
97	0x3dfa4cf8	0.12221712
98	0x3c83b9f0	0.016079873
99	0xbd7192f1	-0.058978025
100	0x3cd62048	0.02613844
101	0xbdbd16a9	-0.09232838
102	0xbd95195e	-0.07280229
103	0xbc10e986	-0.008844739
104	0xbe35e2f3	-0.17762356
105	0x3de727b9	0.11286873
106	0x3dd1948b	0.102334104
107	0xbd8e5fee	-0.06951891
108	0xbc37f33d	-0.011227426
109	0xbdad5382	-0.084631935
110	0x3dadf623	0.084942125
111	0x3de66689	0.11250026
112	0x3d7e9a0c	0.06215863
113	0x3dd61082	0.10452367
114	0x3bdd4c21	0.00675346
115	0xbd2389d5	-0.03992637
116	0xbd5dc2e4	-0.05414094
117	0xbc75d2cb	-0.01500387
118	0xbb01152c	-0.0019696457
119	0xbe28e8cb	-0.16495053
120	0x3dcf3f4c	0.10119495
121	0xbdd05024	-0.101715356
122	0xbdaf9b01	-0.085744865
123	0xbd9422ce	-0.07233201
124	0xbdc6b6e1	-0.0970285
125	0xbe345783	-0.17611508
126	0xbdd24756	-0.102675125
127	0xbd044421	-0.032291535
128	0x3ca8c70d	0.020602727
129	0x3abedda3	0.0014561902
130	0xbb9b8981	-0.0047466164
131	0x3d877e8f	0.06615936
132	0xbd35beab	-0.04437129
133	0xbd0520c4	-0.03250195
134	0x3d9125c4	0.07087281
135	0x3dfe7a2a	0.12425645
136	0xbd7fdcf7	-0.062466588
137	0x3d4bea62	0.04978407
138	0xbd402770	-0.04691261
139	0x3db9a727	0.09065085
140	0xbdcbbcf6	-0.09948151
141	0xbc06ab7f	-0.008219599
142	0xbe1b8c85	-0.15190323
143	0xbb23147c	-0.0024884036
144	0xbd30bff3	-0.043151807
145	0x3deae97a	0.11470313
146	0x3b6fb624	0.003657707
147	0x3c57a6b1	0.013162301
148	0x3d785fb2	0.060638137
149	0xbc8779b7	-0.01653753
150	0xbd45fce7	-0.04833689
151	0xbd306d0d	-0.04307275
152	0xbd3f1224	-0.04664816
153	0xbd3bd35c	-0.045855865
154	0x3defa84c	0.11702022
155	0xbd31711a	-0.043320753
156	0x3cfdea56	0.03099553
157	0x3d7ae91c	0.061257467
158	0xbb9d70f0	-0.004804723
159	0x3e1814da	0.14851704
160	0x3d2c4b87	0.042064216
161	0xbd281d54	-0.041043594
162	0xbe19fcc4	-0.15037829
163	0xbc9cc50e	-0.019136932
164	0xbcda5f62	-0.02665681
165	0x3cef3649	0.02920069
166	0x3d3fcf28	0.04682842
167	0x3c27b2e5	0.010235523
168	0x3e3b205f	0.18274067
169	0x3e16e738	0.1473664
170	0xbdb72276	-0.0894212
171	0x3b842c1b	0.004033578
172	0xbe22d3f0	-0.1590116
173	0x3ce3fa65	0.027829358
174	0xbd46be19	-0.048521135
175	0xbb382f91	-0.0028104524
176	0xbd15b53b	-0.036549788
177	0x3e593cee	0.21214649
178	0xbc3f8f75	-0.011691918
179	0xbdba5cee	-0.09099756
180	0xbdcdd31a	-0.1005003
181	0x3e13466b	0.14382331
182	0x3c58d594	0.013234515
183	0x3dbd9335	0.09256593
184	0xbd173240	-0.036913157
185	0xbbf5b523	-0.0074984
186	0x3db53c90	0.08849442
187	0xbb8d81d8	-0.004318457
188	0x3cbe285a	0.0232126
189	0xbae4ed28	-0.0017465698
190	0x3e0a6eae	0.13518783
191	0x3b3feed1	0.0029286633
192	0xbb6dc0f7	-0.0036278346
193	0xbde67cd8	-0.11254281
194	0x3cedecb5	0.029043535
195	0x3db28c8d	0.08718214
196	0x3c05bac4	0.008162204
197	0xbd906072	-0.070496455
198	0xbe30f543	-0.1728106
199	0x3d70a684	0.05875255
200	0xbd4b6046	-0.04965236
201	0xbdb1a581	-0.086741455
202	0xbd0d153b	-0.034444075
203	0x3da45475	0.080239214
204	0x3e20a8b9	0.15689363
205	0xbc3a546a	-0.011372665
206	0xbc9150c6	-0.017738711
207	0xbd672ff0	-0.0564422
208	0x3e0cff62	0.13769296
209	0xbc201d2c	-0.00977258
210	0x3e035d53	0.12828569
211	0xbd9d680c	-0.07685861
212	0x3c02b41b	0.007977511
213	0x3c004e42	0.007831158
214	0x3d4503d0	0.04809934
215	0x3ba6adda	0.0050866427
216	0xbcf5ed08	-0.030020252
217	0x3e0cc2d6	0.13746199
218	0xbe054a62	-0.13016656
219	0xbd7d4fe6	-0.061843775
220	0xbe3d7b4b	-0.18504064
221	0xbdc3666f	-0.09541022
222	0x3b90e9c8	0.0044224
223	0x3df2eb01	0.1186123
224	0x3cbfed83	0.023428684
225	0xbd5a2455	-0.053257305
226	0xbdbb3f90	-0.09142983
227	0x3d961f15	0.07330147
228	0x3e211ab6	0.15732846
229	0xbd806afc	-0.06270406
230	0xbc72772e	-0.014798922
231	0x3d3a25bb	0.04544614
232	0xbd4cc466	-0.049991988
233	0x3e16c0d8	0.14722002
234	0xbcd349f0	-0.025792092
235	0xbc12305b	-0.008922662
236	0xbd10fcbf	-0.035397287
237	0x3d833fb4	0.06408635
238	0xbdb2a587	-0.08722978
239	0x3c7b176e	0.01532541
240	0x3dd25f28	0.10272056
241	0x3c93d6ab	0.018046698
242	0xbe0975b5	-0.13423808
243	0x3d3925d8	0.045202106
244	0xbe1e2cc0	-0.15446758
245	0x3d29f0da	0.04148946
246	0xbe480c81	-0.1953602
247	0xb95fb7fd	-0.00021335478
248	0x3d9b0b54	0.0757052
249	0xbd9f4292	-0.07776369
250	0x3cdaa137	0.026688201
251	0xbd5bc80f	-0.053657588
252	0xbd1423c7	-0.036166932
253	0xbdd3d934	-0.103441626
254	0x3dafc113	0.08581748
255	0xbe33c051	-0.17553832
